Desktop/Modelling task/Desktop/Modelling task/models/gnn_model.pt (torch, 46877 bytes, 15 tensors)

backbone.emb_foot.weight f4 [2, 4]
0	0xc0271a0e	-2.6109653
1	0x3f10e0a6	0.56592786
2	0xbd18e2fe	-0.03732585
3	0xbead872f	-0.338922
4	0x3f702b74	0.93816304
5	0x3ec60022	0.38671976
6	0x3f79df0c	0.9760597
7	0x401a9854	2.4155474

backbone.emb_position.weight f4 [14, 8]
0	0xbd4d3cce	-0.050106816
1	0x3e79132d	0.24323721
2	0x3f1b21d2	0.6059848
3	0x3e0785cf	0.13234638
4	0x3f031ef7	0.51219124
5	0xbf7fe9fd	-0.9996641
6	0x3ce4f427	0.027948452
7	0x3ec1e590	0.37870455
8	0x3f0cae52	0.5495349
9	0xbe5edcaf	-0.21763872
10	0x3e188252	0.14893463
11	0xbf82b372	-1.0211012
12	0xbfbb2e44	-1.4623494
13	0x3f899bde	1.0750692
14	0x3dd61469	0.10453112
15	0x3f8853a0	1.065052
16	0x3dc45e1f	0.09588265
17	0xbf00d134	-0.5031922
18	0x3f0a187e	0.5394362
19	0x3f174bf1	0.5910025
20	0xbeb1e9f7	-0.34748814
21	0xbfd55601	-1.6666871
22	0xbde08ab0	-0.109639525
23	0xbeb83b66	-0.35982817
24	0xbf6a813b	-0.9160344
25	0x3e4a2b48	0.19743073
26	0x3f0d4521	0.5518361
27	0x3f9459af	1.1589869
28	0xbe8ef601	-0.2792206
29	0x3e07db10	0.1326716
30	0xbf11ed04	-0.5700228
31	0xbcc7bfc7	-0.024383439
32	0xbf2beb60	-0.6715603
33	0x3f492e93	0.7858669
34	0xbf570263	-0.83988017
35	0x3dcfc46b	0.10144886
36	0xbec7d57f	-0.39030072
37	0xbeccc42f	-0.39993426
38	0xbec31795	-0.3810393
39	0x3f91b303	1.1382755
40	0x3f1e0720	0.6172962
41	0x3f14367b	0.5789563
42	0x3ed9bfae	0.42529052
43	0x3fcd3adc	1.6033587
44	0x3eb28325	0.3486568
45	0x3e4fcf58	0.20293939
46	0xbf87ce44	-1.0609822
47	0xbeaf5abc	-0.34248912
48	0xbf6cc8a7	-0.9249367
49	0x40110211	2.2657511
50	0xbfb267b5	-1.3937899
51	0x3fee0520	1.8595314
52	0xbf472cd0	-0.77802753
53	0x3ecb25f7	0.39677402
54	0x3faee191	1.3662587
55	0xbdfdafde	-0.1238706
56	0xbff8551d	-1.9400975
57	0x4007ab04	2.119813
58	0xbef9b7e0	-0.48773098
59	0x3dc5c1a0	0.09656072
60	0x400780fe	2.117248
61	0x3f15fe58	0.5859122
62	0x3e764b3b	0.24052136
63	0xbe5ec07e	-0.21753117
64	0xbe5f0b44	-0.21781641
65	0x3ecb972d	0.39763775
66	0xbdc425c0	-0.09577513
67	0x3d329f4a	0.04360894
68	0xbeaaf074	-0.33386576
69	0x3c419c61	0.011817069
70	0xbf96226e	-1.1729257
71	0x3ff250ef	1.8930949
72	0xbec9d98e	-0.39423794
73	0x3fcc4fcb	1.5961851
74	0x3f9bd552	1.2174475
75	0xbeaed828	-0.3414929
76	0xbffbfd29	-1.9686633
77	0x3e5c8cce	0.21538088
78	0xbf345b69	-0.7045198
79	0x3ef6675f	0.4812574
80	0x3f8de270	1.1084728
81	0x3f3cefb8	0.7380328
82	0xbf884455	-1.0645853
83	0xbec2e0b8	-0.38062072
84	0xbe21abf2	-0.15788248
85	0x3f63e0d2	0.89014924
86	0x3e1ab98b	0.15109842
87	0x3ec7e8cb	0.39044794
88	0xbca87a47	-0.020566119
89	0x400ddec7	2.2167222
90	0x3fa42f21	1.2826883
91	0xbeda29d5	-0.4261004
92	0xbea68d89	-0.32529858
93	0xbf62b436	-0.8855623
94	0x3ffbf835	1.9685122
95	0x3f878376	1.0586994
96	0xbebe6733	-0.3718811
97	0x3d05ee6a	0.032698072
98	0xbf4c4253	-0.797887
99	0x3f2eeb0e	0.68327415
100	0x3ed7ca68	0.4214661
101	0xbf1358e4	-0.5755751
102	0xbfad6edd	-1.3549458
103	0x3e57d7a7	0.21078359
104	0xbfa95e87	-1.3231972
105	0xbf92f196	-1.1479976
106	0x3fd6fcff	1.6795958
107	0x3fa3eb15	1.2806116
108	0xbf167b37	-0.5878176
109	0xbea2868a	-0.3174327
110	0xbf5ac573	-0.85457534
111	0xbfada7cc	-1.3566833

backbone.emb_att_wr.weight f4 [3, 4]
0	0x3eeaee2e	0.45884842
1	0x3d34f367	0.04417744
2	0x3f6d1d2f	0.92622656
3	0xbf628f6f	-0.8850011
4	0x3e9259b1	0.28584054
5	0x3f80bac0	1.0056992
6	0x3ef57b43	0.47945604
7	0xbece1836	-0.40252846
8	0x3f8cf427	1.1012009
9	0xbf217d2f	-0.6308164
10	0x3f6544fd	0.8955839
11	0xbfa4e488	-1.2882242

backbone.emb_def_wr.weight f4 [3, 4]
0	0xbf93d167	-1.154828
1	0xbf808566	-1.004071
2	0x3f2c71d5	0.67361194
3	0xbfa570a9	-1.2925006
4	0xbf4007af	-0.75011724
5	0xbd4f1d0d	-0.050564814
6	0xbede8a93	-0.434651
7	0xbf333016	-0.6999525
8	0x3fb33f5f	1.4003714
9	0x3d9ad4a7	0.075600915
10	0x3f07dc79	0.5307079
11	0x3cf642de	0.030061182

backbone.emb_nationality.weight f4 [26, 8]
0	0x3f0a17e9	0.53942734
1	0xbe4344ba	-0.19069186
2	0xbf0cbecc	-0.5497863
3	0xbf2de627	-0.6792931
4	0xbe8cee03	-0.2752534
5	0xbfbbcc79	-1.4671775
6	0xbdfb7c02	-0.12279512
7	0xbfe3d4e3	-1.7799343
8	0x3f06061a	0.5235306
9	0x3f84c30c	1.0372024
10	0xbded2217	-0.11578768
11	0xbe1d432c	-0.15357655
12	0x3f27cb7a	0.65544856
13	0xbdb8a9eb	-0.09016784
14	0xbf7387d9	-0.9512916
15	0xbefef428	-0.4979565
16	0x3e57a7a4	0.21060044
17	0x3dbf3d84	0.09337905
18	0xbf066f1f	-0.5251331
19	0xbf2e8a1c	-0.6817949
20	0x3f765d7b	0.9623639
21	0x3f10f2e2	0.5662061
22	0xbeeb9c92	-0.4601789
23	0x3e8be813	0.27325496
24	0xbf41acbf	-0.75654215
25	0x3e72be40	0.23705387
26	0xbeca628e	-0.39528316
27	0x3f12a843	0.57287997
28	0xc00edf45	-2.2323773
29	0xbf02027f	-0.5078506
30	0x3ee99a52	0.4562555
31	0x3dfc5359	0.12320585
32	0x3f92f5cf	1.1481265
33	0x3e8f201a	0.2795418
34	0x3ea2ec36	0.3182084
35	0x3e230626	0.15920314
36	0xbe394312	-0.18091992
37	0x3e44b1a8	0.19208395
38	0xbd9f90b9	-0.077912755
39	0x3efdfbfd	0.49606314
40	0xbe5a5202	-0.21320346
41	0x3f3aafb8	0.72924376
42	0x3e81192a	0.2521451
43	0xc01541b6	-2.3321357
44	0x3fa2dc3f	1.2723464
45	0x3dbc618e	0.091982946
46	0x3fbe5d09	1.4872142
47	0x3dd612a7	0.104527764
48	0x3f947cd0	1.160059
49	0xbee79e78	-0.4523809
50	0xbf09c8d4	-0.53822064
51	0x3edef2f5	0.43544737
52	0x3e8a39f0	0.26997328
53	0xbf86b0ab	-1.0522665
54	0xbf938753	-1.1525673
55	0x3f5d147b	0.86359376
56	0x3f018b40	0.50603104
57	0xbf1da57b	-0.6158063
58	0xbf6ef7a8	-0.93346643
59	0xbe0c214a	-0.13684574
60	0x3f62cd94	0.8859494
61	0x3f87b217	1.0601224
62	0x3fa1ead6	1.2649791
63	0x3ef8b64a	0.48576576
64	0xbf3fad59	-0.7487388
65	0x3f10c85e	0.56555736
66	0x3e9382fa	0.28810865
67	0xbf1d1343	-0.61357516
68	0xbf03b82f	-0.51452917
69	0x3f26dc9a	0.6518036
70	0x3ef92399	0.4865997
71	0xbd791fd5	-0.060821373
72	0x3e865d1f	0.2624292
73	0xbe4d6b64	-0.20060498
74	0x3f6acc1b	0.9171769
75	0xbda871d4	-0.08224836
76	0xbf622483	-0.8833696
77	0x3e282748	0.16421235
78	0x3f0b2a72	0.5436164
79	0x3e79acc5	0.24382313
80	0xbdfd362c	-0.12363848
81	0xbeb33e8d	-0.3500866
82	0xbe902082	-0.28149801
83	0x3f991a53	1.1961159
84	0xc03b3941	-2.9253695
85	0x3f995a85	1.1980749
86	0x3e037221	0.12836505
87	0x3e6d8dcd	0.23198624
88	0xbfbdf818	-1.4841337
89	0x3e661a74	0.22471029
90	0xbf49ffbc	-0.78905845
91	0x3f841d0b	1.0321363
92	0xc0009305	-2.0089734
93	0xbd491e51	-0.049101178
94	0x3eda64d2	0.42655045
95	0x40011402	2.0168462
96	0xbf00b883	-0.5028154
97	0xbf6482a3	-0.89261836
98	0x3e2caa94	0.16861945
99	0xbfba3564	-1.4547544
100	0x3f8a3cbd	1.0799786
101	0xbe3b3c3b	-0.18284695
102	0x3f21beb2	0.631816
103	0xbef51f8a	-0.47875625
104	0xbe32dc5e	-0.17466876
105	0xbd7eb661	-0.06218565
106	0xbddf3a94	-0.10899845
107	0xbd0df6f8	-0.034659356
108	0xbfdb8b83	-1.7151951
109	0xbd9fc558	-0.07801312
110	0xbf4868f7	-0.78285164
111	0xbc11f488	-0.008908398
112	0x3f6bef9f	0.9216251
113	0xbdb20787	-0.08692842
114	0xc0342691	-2.814854
115	0xbf0e355f	-0.5555019
116	0x3f211886	0.62928045
117	0x3e23cabe	0.15995309
118	0x3d6b353a	0.057423808
119	0x3f6bf8ef	0.9217672
120	0xbf4a221e	-0.7895831
121	0xbef256a2	-0.4733172
122	0x3f2c14da	0.67219317
123	0x3e9cf4c8	0.30655503
124	0xbebb7653	-0.36613712
125	0x3eea5397	0.457669
126	0xbf26fae7	-0.65226597
127	0x3ebbb435	0.36660925
128	0xbecb98b2	-0.39764935
129	0x3f9dd350	1.2330112
130	0x3f774f3f	0.96605295
131	0x3f2f15b8	0.68392515
132	0x3f8dc954	1.1077065
133	0x3efbd35f	0.491847
134	0x3f82203c	1.0166087
135	0xbf6a3b7e	-0.9149703
136	0x3ec90e68	0.39268804
137	0x3ecaddbb	0.39622292
138	0xbf06545f	-0.5247249
139	0xbe2507a3	-0.16116194
140	0x3dea05d1	0.11426891
141	0xbb9edd57	-0.004848163
142	0x3f12fc40	0.5741615
143	0x3e6d45bf	0.23171137
144	0xbe491c5c	-0.19639724
145	0x3f1ab616	0.6043409
146	0xbf2271b7	-0.63454765
147	0xbe0c74e0	-0.1371646
148	0x3ed8bc78	0.4233129
149	0xbe0b305e	-0.1359267
150	0x3e70eb63	0.23527293
151	0xbf1541ed	-0.5830372
152	0x3f8bc3d0	1.0919132
153	0x3ec64d14	0.3873068
154	0xbf2bf9eb	-0.6717822
155	0x3f3bc10c	0.7334144
156	0xbf128118	-0.5722823
157	0x3e214265	0.15747984
158	0xbf017182	-0.50563824
159	0xbf3c7c6b	-0.73627347
160	0x3de36690	0.111035466
161	0x3efc2858	0.4924953
162	0x3e72255b	0.23647062
163	0xbe72488d	-0.23660488
164	0x3fb0d33d	1.3814465
165	0xbf606218	-0.8764968
166	0xbda188f5	-0.078874506
167	0x3d861151	0.065462716
168	0xbe274a94	-0.16337043
169	0xbceb4350	-0.02871862
170	0xbdc32fdc	-0.09530613
171	0xbe3c6a9a	-0.1840004
172	0xbf16615e	-0.5874232
173	0x3ef86d0a	0.4852069
174	0x3efd3309	0.49453
175	0xbebbbf43	-0.3666936
176	0xbeb820d7	-0.35962555
177	0x3fd401b0	1.6563015
178	0x3fb081bf	1.3789595
179	0x3f7bfeb4	0.9843552
180	0xc033d94f	-2.8101385
181	0x3fe788c8	1.8088617
182	0xbf19085b	-0.59778374
183	0xbf87ffe0	-1.0624962
184	0xbec04dae	-0.37559265
185	0x3b034859	0.0020032136
186	0x3f15a139	0.5844913
187	0x3d6f72bb	0.058459025
188	0xbe2b7fdb	-0.16747992
189	0x3f9ffa8b	1.2498335
190	0xbf006db0	-0.5016737
191	0xbfcc0614	-1.5939355
192	0x3fa23eaa	1.2675374
193	0xc019dbcb	-2.40404
194	0x3c848500	0.0161767
195	0x3fac3cd7	1.3456067
196	0x3f057a8c	0.52140117
197	0x3e365c8d	0.17808743
198	0x400b497d	2.1763604
199	0xbf37d7ec	-0.71813846
200	0x3f881aa8	1.0633135
201	0x3e6d8a5b	0.2319731
202	0x3ea6ab73	0.3255268
203	0xbd7c6a61	-0.06162489
204	0x3f1e9b81	0.6195603
205	0x3e61d399	0.22053374
206	0x3f91f9ca	1.1404355
207	0xbf9d005b	-1.2265733

backbone.conv1.bias f4 [64]
0	0x3bc712f4	0.0060752574
1	0xbc84cbc6	-0.016210448
2	0xbd2724f8	-0.04080674
3	0x3dc7e516	0.097604915
4	0x3dc8c677	0.09803479
5	0xbd615c47	-0.055019643
6	0xbd40369f	-0.04692709
7	0xbd5747d7	-0.052558746
8	0x3c64a20a	0.013954649
9	0xbc0ab621	-0.0084662745
10	0xbcbd7a48	-0.023129597
11	0xbcbd49f3	-0.02310655
12	0xbca52500	-0.020159245
13	0xbd85c155	-0.06531016
14	0xbd4621cc	-0.048372075
15	0x3d22fa14	0.039789274
16	0x3c1e7b4d	0.009672952
17	0xbd86116b	-0.06546291
18	0xbd5ef117	-0.05442914
19	0xbcbededf	-0.023299633
20	0x3c098606	0.00839377
21	0xbc2d2828	-0.010568656
22	0xbd334233	-0.043764304
23	0xbd9606a8	-0.07325488
24	0xbd0be814	-0.034156874
25	0xbd342bca	-0.043987073
26	0x3cf541b2	0.029938553
27	0x3c76d62b	0.01506571
28	0x3c28438a	0.010270009
29	0xbcd6bbaf	-0.026212541
30	0xbd3c2554	-0.045934036
31	0xbd841737	-0.064497404
32	0xbc56fc2e	-0.013121648
33	0xba14a83c	-0.0005670821
34	0xbc50296c	-0.012705188
35	0xbd0e8294	-0.034792498
36	0xbd512e1b	-0.05106936
37	0xbbe07078	-0.006849345
38	0xbbd5d1ab	-0.0065252385
39	0xbd44ec97	-0.048077192
40	0xbd325d5f	-0.043546077
41	0xbd7dbb88	-0.06194642
42	0xbab641fe	-0.0013905165
43	0xbc968bdb	-0.018377235
44	0x3dbeda49	0.09318978
45	0x3ddf91da	0.10916491
46	0xbd01e84f	-0.031715687
47	0xbd5b6260	-0.053560615
48	0xbbdcb9e0	-0.006736025
49	0xbd64160a	-0.05568508
50	0xbd582679	-0.052771065
51	0xbcd8d3af	-0.026468126
52	0xbca40938	-0.020023927
53	0x39b160dc	0.00033832237
54	0xbdb25628	-0.08707839
55	0xbd5cf5af	-0.05394524
56	0x3da66327	0.081243806
57	0xbd2a5812	-0.041587897
58	0x3d79a5fd	0.060949314
59	0xbd912ac1	-0.07088233
60	0x3b52dbef	0.0032174548
61	0xbd6e3272	-0.058153577
62	0x3dcd52f9	0.100255914
63	0xbdad99fa	-0.08476634

backbone.conv1.lin.weight f4 [64, 38]
0	0x3d7cf48e	0.061756663
1	0xbd3ada4f	-0.04561835
2	0xbe7b3c07	-0.24534617
3	0xbe276780	-0.16348076
4	0x3e0b76ed	0.13619585
5	0x3eecdfd2	0.4626451
6	0x3e6114ff	0.21980666
7	0xbd8c56bf	-0.06852483
8	0xbe1fa482	-0.15590099
9	0x3c873530	0.016504854
10	0xbe37c56d	-0.17946406
11	0xbe299830	-0.16561961
12	0xbe6303f2	-0.22169474
13	0x3c9a4b35	0.01883469
14	0xbdbdd262	-0.09268643
15	0x3e52601c	0.20544475
16	0xbd7afa1b	-0.061273675
17	0x3e8c8995	0.27448717
18	0xbde2dd30	-0.110773444
19	0xbdcb27ca	-0.099196985
20	0xbe21410f	-0.15747474
21	0xbcde430a	-0.027131576
22	0xbe5a51d8	-0.21320283
23	0x3cc152c3	0.023599034
24	0x3ded3a20	0.11583352
25	0xbde58397	-0.112067394
26	0xbe24adc1	-0.16081907
27	0x3ded0eab	0.11575063
28	0x3c5f7f6e	0.013641221
29	0x3e769643	0.24080758
30	0xbd8e637f	-0.06952571
31	0x3bdbd83d	0.006709127
32	0x3e01590a	0.12631622
33	0xbe2d50b5	-0.16925319
34	0x3c4ac15d	0.012375203
35	0x3aedf868	0.0018155696
36	0x3e66d804	0.22543341
37	0xbe8622fc	-0.26198566
38	0xbe1c8e55	-0.1528867
39	0x3993f777	0.000282224
40	0xbce6fe37	-0.028197391
41	0xbb726e57	-0.0036992037
42	0x3c9582c0	0.018250823
43	0x3db1d12b	0.08682474
44	0x3e284f0a	0.16436401
45	0xbd874333	-0.06604614
46	0xbd16e170	-0.036836088
47	0x3cef91f0	0.029244393
48	0xbe16c854	-0.14724857
49	0xbd8a1bdc	-0.06743595
50	0xbd662a40	-0.056192636
51	0xbe3ac5c7	-0.18239509
52	0x3ddd7afa	0.108144715
53	0xbd3ecbd4	-0.046581104
54	0xbcd8db46	-0.026471745
55	0xbd792ca7	-0.0608336
56	0x3cdd2190	0.026993543
57	0xbcae7aac	-0.021298729
58	0xbe054eac	-0.13018292
59	0x3d4c0619	0.049810503
60	0xbd405105	-0.046952266
61	0xbd938f2b	-0.072050415
62	0xbe099488	-0.13435566
63	0x3d0fef68	0.035140425
64	0xbdb2e249	-0.08734567
65	0xbd2624ce	-0.040562443
66	0xbe2e108d	-0.16998501
67	0x3da2b18c	0.07944021
68	0x3dba2f4e	0.09091054
69	0xbd510b52	-0.051036187
70	0xbdd62221	-0.10455728
71	0x3d3acb96	0.04560431
72	0xbc698e3d	-0.014255104
73	0xbd63eeb7	-0.055647578
74	0x3c040c69	0.008059599
75	0x3d1f8d53	0.038953137
76	0x3e16fc46	0.14744672
77	0x3d86a308	0.065740645
78	0xbe46a6ab	-0.19399516
79	0x3e1fbd24	0.15599495
80	0xbdeed5d0	-0.11661875
81	0xbdc5575c	-0.09635803
82	0xbd8dd251	-0.0692488
83	0x3dd4c2d7	0.10388725
84	0xbd870a92	-0.06593813
85	0x3e125422	0.14289907
86	0xbd8d96ae	-0.069135055
87	0xbb430082	-0.0029754941
88	0xbe09e367	-0.13465653
89	0xbccc575b	-0.024943998
90	0x3c9dd449	0.019266265
91	0x3dcdaf81	0.1004324
92	0xbe2f62e1	-0.17127563
93	0xbe38d7f2	-0.18051127
94	0x3e246a66	0.16056213
95	0x3dbba29d	0.091618754
96	0xbe222054	-0.15832645
97	0xbca22a13	-0.019795453
98	0xbdc04c13	-0.0938951
99	0xbe2f7cee	-0.171375
100	0x3e34fc49	0.17674364
101	0xbc9b6bb1	-0.01897225
102	0x3cdd57b8	0.027019367
103	0x3d3b1570	0.04567474
104	0xbd8250fd	-0.063631035
105	0x3e5a3992	0.21311024
106	0x3e54e4e9	0.20790447
107	0x3cab67e8	0.02092357
108	0xbd031984	-0.032006755
109	0xbdad3aa9	-0.08458454
110	0xbe22ece6	-0.15910682
111	0xbd88dd2a	-0.06682809
112	0xbdd81bc0	-0.10552168
113	0xbd210053	-0.03930695
114	0xbe1d77c5	-0.1537772
115	0x3c3d645f	0.011559575
116	0x3ddc8302	0.10767175
117	0x3e6a65fb	0.22890465
118	0xbcd1132f	-0.025521843
119	0xbeabd691	-0.3356214
120	0x3e4e459b	0.2014374
121	0xbe44c522	-0.19215825
122	0x3e87f124	0.26551163
123	0xbe8e635c	-0.2781018
124	0x3d260f89	0.04054216
125	0x3ce0fd97	0.027464671
126	0xbd7d5a87	-0.06185391
127	0x3d1bacaf	0.03800648
128	0x3dc40c6e	0.09572683
129	0xbcdef17b	-0.027214756
130	0x3d90b881	0.07066441
131	0xbe49e4e1	-0.19716217
132	0xbe3e708a	-0.18597618
133	0x3ec31d00	0.38108063
134	0x3dce167e	0.10062884
135	0x3e9fa841	0.31183055
136	0xbdbf1f66	-0.09332161
137	0xba5397d0	-0.0008071633
138	0xbdb9aecc	-0.09066543
139	0xbe5d49e3	-0.21610217
140	0xbe11746c	-0.14204568
141	0xbdfc7f9c	-0.12329027
142	0x3d9b21d6	0.07574813
143	0xbc96b5fb	-0.018397322
144	0x3e642491	0.22279574
145	0xbdf65bca	-0.12029226
146	0xbe3a7068	-0.18206942
147	0x3e72e6e3	0.23720889
148	0xbd4d6a3f	-0.050150152
149	0x3dc7da2d	0.097584106
150	0x3d396a6d	0.04526751
151	0xbe1b3c8b	-0.15159814
152	0x3d0e0a80	0.034677982
153	0x3e7e2241	0.24817754
154	0x3da9a91c	0.08284208
155	0xbcaf5140	-0.021401048
156	0x3e887b34	0.26656497
157	0x3d25bd4a	0.040463723
158	0x3e6e6ff5	0.23284896
159	0x3dcb1775	0.099165834
160	0x3e66510c	0.22491854
161	0xbe71d24c	-0.23615378
162	0xbd20836e	-0.03918784
163	0x3ce617b4	0.028087474
164	0xbdd03371	-0.10166062
165	0xbc72b57e	-0.014813779
166	0x3e62d952	0.22153214
167	0xb9bc4ae8	-0.00035913964
168	0x3d3485d0	0.044072926
169	0xbdc37798	-0.09544295
170	0xbe538627	-0.20656644
171	0x3e8376ea	0.25676662
172	0x3d1981da	0.03747735
173	0x3e3d8fca	0.18511882
174	0x3c6f58a7	0.014608539
175	0xbd9c0968	-0.076189816
176	0xbd3b6c99	-0.045757864
177	0xbe872ff6	-0.2640378
178	0xbdea90a1	-0.11453367
179	0xbe799e9d	-0.24376912
180	0x3dd00e8a	0.10159023
181	0xbdad6325	-0.08466176
182	0x3e5c1404	0.2149201
183	0x3df9dd25	0.12200383
184	0xbe6272ba	-0.22114077
185	0x3e81f6d0	0.25383615
186	0xbeacdb85	-0.3376123
187	0xbde08267	-0.10962372
188	0xbd809188	-0.06277758
189	0xbe789368	-0.24274981
190	0xbcb35b98	-0.021894261
191	0x3e238003	0.15966801
192	0xbd9e5e13	-0.07732787
193	0xbe058da5	-0.13042314
194	0x3db7b8e3	0.08970811
195	0xbd98a9ad	-0.07454238
196	0xbd5997f1	-0.05312342
197	0xbda10b9b	-0.07863542
198	0xbdad1471	-0.084511645
199	0xbe075b37	-0.1321839
200	0xbd004a5e	-0.031320922
201	0xbe7c0677	-0.24611841
202	0x3db041aa	0.086062744
203	0xbe621214	-0.22077209
204	0x3e18202b	0.14856021
205	0xbdc36902	-0.09541513
206	0x3e0f1d1c	0.13975948
207	0x3d21199e	0.03933107
208	0xbdf02b6e	-0.117270336
209	0xbc815728	-0.01578863
210	0xbb9d4608	-0.004799608
211	0xbd88a862	-0.066727415
212	0xbe65ca41	-0.22440435
213	0x3d502ee5	0.050825972
214	0x3c1661ac	0.00917856
215	0x3e500331	0.20313717
216	0xbde744d6	-0.11292426
217	0x3cf6d589	0.030131118
218	0xbe59561a	-0.21224251
219	0x3e39a7ec	0.18130463
220	0xbdbb8bff	-0.091575615
221	0xbdf68db0	-0.120387435
222	0x3d5e6317	0.05429372
223	0xbce45b21	-0.027875485
224	0xbbae7cdd	-0.0053249435
225	0x3e01c898	0.12674177
226	0x3c813fd3	0.015777504
227	0xbcdab6e4	-0.026698537
228	0xbd288b65	-0.041148562
229	0xbc8c4076	-0.017120581
230	0x3d77e372	0.060519643
231	0xbd707e0b	-0.058713954
232	0x3e2f7b6c	0.17136925
233	0x3dd163b6	0.102240965
234	0x3c6ed8c0	0.014578044
235	0x3d709e59	0.058744762
236	0x3cb0a322	0.021562163
237	0xbe077d1c	-0.13231319
238	0x3cee196e	0.02906486
239	0xbe83c41d	-0.2573556
240	0xbe745a3e	-0.2386255
241	0x3da249f8	0.07924265
242	0xbe2aca8e	-0.16678831
243	0x3daf0c3a	0.08547254
244	0x3e0f6ef6	0.14007172
245	0xbe6981a1	-0.22803356
246	0x3e6bd795	0.23031457
247	0x3df070b4	0.117402464
248	0xbae7d785	-0.0017688131
249	0xbda58951	-0.08082832
250	0x3e1ee071	0.15515305
251	0xbe36dd87	-0.17857943
252	0xbe1fb364	-0.15595776
253	0x3df79138	0.12088245
254	0xbde22efb	-0.11044117
255	0x3cf0330c	0.029321216

backbone.conv2.bias f4 [64]
0	0x3da6070b	0.08106812
1	0x3cad8eac	0.021186195
2	0xbd057fd1	-0.0325926
3	0x3d8d8077	0.06909268
4	0x3ce4271b	0.027850678
5	0xbd869b2d	-0.06572566
6	0x3d8e6c1a	0.069542125
7	0x3da360e1	0.079774626
8	0xbd5d8dd8	-0.05409035
9	0x3d58061d	0.052740205
10	0xbbae0f9e	-0.0053119203
11	0xbd5cde6f	-0.053923067
12	0x3d5abbbd	0.053401697
13	0xbd741440	-0.059589624
14	0x3c5a1de2	0.013312789
15	0x3d4265cf	0.047460373
16	0x3d3bb82f	0.045829948
17	0x3d9fbfd7	0.078002624
18	0x3cb3aae4	0.021932073
19	0x3d48ffa7	0.049071934
20	0xbc50174b	-0.012700866
21	0xbcd4f20b	-0.025994321
22	0xbd502cc0	-0.050823927
23	0xbd54ea51	-0.051981274
24	0xbd51dcd1	-0.051235978
25	0xbd595da6	-0.053067826
26	0x3d6a97d1	0.05727369
27	0x3d359875	0.044334847
28	0xbd1cdd34	-0.038296893
29	0xbd9cf186	-0.076632544
30	0xbcb164a1	-0.021654429
31	0x3d073c28	0.033016354
32	0xbda6caf5	-0.0814418
33	0xbd762116	-0.060090147
34	0xbd0ab471	-0.03386349
35	0x3d785696	0.06062945
36	0xbd69587a	-0.056969143
37	0x3d96c861	0.07362438
38	0xbd63e33c	-0.05563663
39	0xbd8c1360	-0.06839633
40	0x3d29a0c5	0.041413087
41	0x3db148a8	0.08656436
42	0xbd95f772	-0.07322587
43	0x3d1e0ddd	0.03858744
44	0x3ca78ae2	0.020451967
45	0x3d6595ee	0.056051187
46	0xbd4dba3d	-0.05022644
47	0xbd896497	-0.06708639
48	0xbc1629d8	-0.00916525
49	0xbd528dc1	-0.05140472
50	0x3d5cde67	0.053923037
51	0xbd8eb3bc	-0.06967875
52	0xbd89153c	-0.06693503
53	0x3d26cbde	0.040721767
54	0xbd97c707	-0.07411008
55	0xbd8540f8	-0.065065324
56	0x3d906679	0.07050795
57	0x3d10ab8e	0.035319857
58	0x3d4de8be	0.05027079
59	0x3d386d61	0.045026187
60	0x3c644f3d	0.0139349075
61	0xbceac869	-0.028660016
62	0x3cfb8a49	0.030705588
63	0x3c8d5c1f	0.01725584

backbone.conv2.lin.weight f4 [64, 64]
0	0x3bdb28d9	0.006688219
1	0xbd527c1c	-0.05138789
2	0x3de4ff8a	0.11181553
3	0x3e2da753	0.1695836
4	0xbc732828	-0.014841117
5	0x3da925ca	0.08259161
6	0xbd19fe9d	-0.037596334
7	0x3dfc3a9e	0.12315868
8	0x3dc349c5	0.09535555
9	0x3e8d7af8	0.2763288
10	0xbe030a2f	-0.12796853
11	0xbdad2f67	-0.08456307
12	0x3dac039d	0.08399127
13	0xbe2e9156	-0.17047629
14	0xbe08b49d	-0.13350148
15	0x3e51a8f5	0.20474608
16	0x3e4e9f35	0.2017792
17	0x3de321b8	0.11090416
18	0x3d5fb8ba	0.05461953
19	0xbd83bb81	-0.06432248
20	0xbd5a3a02	-0.053277977
21	0x3a74a666	0.00093326566
22	0x3e258e74	0.16167623
23	0xbd9b7a01	-0.0759163
24	0xbdbfc6f6	-0.09364121
25	0xbe19f9b8	-0.15036666
26	0xbe237754	-0.15963489
27	0xbe56217c	-0.20911211
28	0x3e0f9209	0.14020552
29	0xbd89784b	-0.06712397
30	0xbd062be1	-0.03275669
31	0xbd16addd	-0.036786903
32	0xbd33aa44	-0.04386355
33	0x3d897360	0.06711459
34	0xbd7f8fef	-0.062393125
35	0xbe4772b3	-0.19477348
36	0x3c992a12	0.018696819
37	0xbd8ac19b	-0.067752086
38	0x3e38ea76	0.1805819
39	0x3e1a6fbb	0.15081684
40	0xbdb08808	-0.08619696
41	0xbdb51278	-0.08841413
42	0x3e0bc4f9	0.13649358
43	0x3e3f0a34	0.18656236
44	0x3e4a8240	0.19776249
45	0x3e32460b	0.17409532
46	0xbe557905	-0.20846947
47	0x3e24631e	0.16053435
48	0xbe0c98fa	-0.13730231
49	0x3dc753be	0.097327694
50	0x3e3c3122	0.18378118
51	0x3ddc16c9	0.107465334
52	0xbd087267	-0.033312228
53	0x3e27c769	0.16384663
54	0xbe45c9f4	-0.1931532
55	0xbe33f3cb	-0.17573468
56	0x3d140fbe	0.036147825
57	0x3ddf5b00	0.10906029
58	0x3e8b0388	0.27151132
59	0x3e4114f3	0.18855648
60	0xbe1e9cf1	-0.15489556
61	0xbda55ca0	-0.080743074
62	0xbe19262f	-0.14955972
63	0x3cebb0f5	0.028770903
64	0xbe2037b6	-0.15646252
65	0xbd0ad9da	-0.033899166
66	0xbe07476b	-0.13210838
67	0x3e08b884	0.13351637
68	0x3dcca985	0.09993271
69	0xbd3f9ec8	-0.046782285
70	0xbe260519	-0.16212882
71	0xbe334edd	-0.17510553
72	0x3e853615	0.26017824
73	0x3dc5af8f	0.09652626
74	0x3dea8230	0.114506125
75	0xbd4fede6	-0.050763987
76	0x3d9d465a	0.07679434
77	0x3e030337	0.12794195
78	0xbe5cca96	-0.21561655
79	0x3d7e96c7	0.06215551
80	0x3d71cf83	0.05903579
81	0xbd1673a9	-0.036731396
82	0x3df6bc76	0.12047665
83	0x3c9275bc	0.017878406
84	0x3db4fb66	0.08837013
85	0x3bdd8b32	0.006760978
86	0xbd0c3d45	-0.03423812
87	0x3b8ddfdb	0.004329664
88	0xbd3e18fc	-0.046410546
89	0xbdf3a9ac	-0.11897597
90	0x3e163fb0	0.14672732
91	0xbdab288e	-0.083573446
92	0xbe08e6b4	-0.13369256
93	0xbd8a1774	-0.067427546
94	0x3d6b52bf	0.05745196
95	0x3e31b002	0.17352298
96	0x3e0e7bb4	0.13914376
97	0xbd639bcb	-0.055568498
98	0x3d6bc423	0.057560097
99	0xbdb3fd0d	-0.087885
100	0x3deff1e7	0.11716061
101	0xbda45161	-0.08023334
102	0xbd1ebaad	-0.038752247
103	0xbe0e7952	-0.13913468
104	0x3d26f037	0.04075643
105	0x3d2af88a	0.04174093
106	0xbe2b8d10	-0.1675303
107	0x3b0eea1e	0.0021807025
108	0x3e6d1abb	0.23154728
109	0x3bd3d290	0.00646431
110	0x3ce80d2d	0.028326595
111	0xbdcde0fd	-0.10052679
112	0x3e59bf9c	0.212645
113	0x3cbc7708	0.023005977
114	0xbde2e0fc	-0.110780686
115	0x3d0cd436	0.034382068
116	0xbc12c3a8	-0.008957781
117	0xbd600060	-0.054687858
118	0xbd8f388e	-0.06993209
119	0x3dd5e79b	0.10444566
120	0xbe8fb10d	-0.28064767
121	0xbe2fb4b5	-0.17158778
122	0x3eb30100	0.349617
123	0x3ddfc5cb	0.10926398
124	0xbe996728	-0.29961514
125	0xbe161841	-0.1465769
126	0xbe2e8391	-0.17042376
127	0xbdbcddb6	-0.092219755
128	0xbe26f6f8	-0.16305149
129	0xbc94c31a	-0.018159438
130	0x3c6e030b	0.014527093
131	0xbd5022f5	-0.050814588
132	0xbd2623d3	-0.04056151
133	0xbcee0a4d	-0.029057646
134	0xbe4a7769	-0.19772114
135	0xbd803076	-0.06259243
136	0xbd4bd730	-0.049765766
137	0x3e3ad155	0.18243916
138	0x3de9133b	0.11380621
139	0xbe2a3023	-0.16619925
140	0xbcc9376a	-0.024562556
141	0xbded3b75	-0.11583606
142	0x3e08832e	0.13331291
143	0x3ca46e58	0.020072147
144	0xbd4ed4ae	-0.050495796
145	0xbdcc2f7e	-0.09969996
146	0x3d7abade	0.061213367
147	0xbe00fccc	-0.12596434
148	0x3cdf03fd	0.027223581
149	0x3d583ac6	0.052790426
150	0xbde5a01f	-0.11212181
151	0x3dbf6ad6	0.09346549
152	0xbe2ae327	-0.16688214
153	0x3e4573b0	0.19282413
154	0x3e133204	0.14374548
155	0xbcc387e7	-0.023868514
156	0xbe32e299	-0.17469253
157	0xbe64c7ed	-0.2234189
158	0xbd9ddc85	-0.077080764
159	0xbd08e036	-0.03341695
160	0xbe0f00b4	-0.13965112
161	0xbe36f11c	-0.17865413
162	0xbc1fe3e2	-0.009758921
163	0x3e36097e	0.17777058
164	0xbdf7e38d	-0.12103949
165	0xbe18d5fb	-0.14925377
166	0x3e02f655	0.1278928
167	0xbddf5e56	-0.10906665
168	0xbdb89c2d	-0.09014163
169	0x3e441978	0.1915034
170	0xbe33ca49	-0.17557634
171	0x3deace91	0.11465181
172	0x3c91e6ba	0.017810214
173	0xbd926a24	-0.07149151
174	0xbe2de88d	-0.16983242
175	0x3cf823fd	0.030290598
176	0xbceacfed	-0.0286636
177	0x3d81baec	0.06334481
178	0xbc8bb6df	-0.017054973
179	0xbe090af6	-0.13383088
180	0xbdc80ff5	-0.097686686
181	0xbdfddb8f	-0.12395393
182	0x3e2f1f45	0.17101772
183	0x3e342e21	0.17595722
184	0xbe158f6f	-0.14605497
185	0x3de48a27	0.11159163
186	0xbd80bca6	-0.06285982
187	0xbd9133c5	-0.070899524
188	0x3d449e8a	0.048002757
189	0x3d675140	0.05647397
190	0xbd4e0c7d	-0.05030488
191	0x3dacc7df	0.0843656
192	0xbe17cbc8	-0.1482383
193	0xbe00b082	-0.12567332
194	0x3d08b586	0.03337624
195	0x3e1881a8	0.1489321
196	0xbd7490b5	-0.059708316
197	0x3ce06458	0.027391598
198	0x3e52bcda	0.20579854
199	0x3e249a46	0.16074476
200	0x3e3a03c0	0.18165493
201	0xbdd238fd	-0.10264776
202	0xbdf4c258	-0.11951131
203	0x3e273886	0.16330156
204	0xbd521fc2	-0.051299818
205	0xbd4700ec	-0.048584864
206	0xbe647386	-0.22309694
207	0x3ceb8b39	0.02875291
208	0x3e288cc0	0.16459942
209	0xbdf057f6	-0.11735527
210	0xbe0bf28b	-0.13666742
211	0x3d3141a3	0.043275487
212	0x3d86ce2f	0.06582295
213	0xbcc0dfc9	-0.02354421
214	0x3e3f22a3	0.18665557
215	0xbd205896	-0.039146982
216	0x3d61d989	0.0551391
217	0xbe42682b	-0.1898505
218	0x3e23e1f1	0.16004159
219	0xbdbc2cf5	-0.091882624
220	0x3d79ba8c	0.06096892
221	0xbe33e78a	-0.17568794
222	0x3e23258f	0.15932296
223	0x3e36f082	0.17865184
224	0x3d983af0	0.074331164
225	0xbd997b15	-0.07494179
226	0x3d855f84	0.06512359
227	0xbe540f0e	-0.20708868
228	0x3e471341	0.19440939
229	0xbd44166f	-0.047872957
230	0x3e62a0a2	0.22131589
231	0x3e1337e0	0.14376783
232	0x3d80d704	0.06291011
233	0xbe5af1c7	-0.21381293
234	0xbd8fcc5b	-0.070213996
235	0xbdc5dd66	-0.09661369
236	0x3e1b83db	0.15187018
237	0xbda1cad3	-0.07900014
238	0xbcb761f1	-0.02238557
239	0xbe157c4d	-0.14598198
240	0x3e401fed	0.18762179
241	0x3b3b67ae	0.0028595733
242	0x3d85c0a8	0.06530887
243	0xbdfeb9f4	-0.124378115
244	0x3dcb8403	0.099372886
245	0x3ddb62aa	0.10712178
246	0x3e1125c7	0.14174567
247	0x3c0600dc	0.008178916
248	0xbe73cdfd	-0.23809047
249	0x3c9ab6d3	0.018886006
250	0x3d9d88a4	0.07692078
251	0xbe014276	-0.12623009
252	0xbd0f4f46	-0.03498771
253	0xbde34541	-0.110971935
254	0xbe583366	-0.21113357
255	0x3d8c961a	0.06864567

backbone.lin.weight f4 [1, 64]
0	0x3db905c0	0.090343
1	0xbd4ee098	-0.050507158
2	0xbde1e9a8	-0.110308945
3	0x3ddc927c	0.10770127
4	0xbc50b980	-0.012739539
5	0xbd05db84	-0.03268005
6	0xbda7831a	-0.081793025
7	0xbcc13678	-0.023585543
8	0x3d91de96	0.07122533
9	0xbda8e29c	-0.08246347
10	0x3d917d42	0.07103969
11	0xbdc07d24	-0.09398869
12	0xbdfab022	-0.12240626
13	0x3dc3a0a4	0.09552124
14	0xbd105928	-0.035241276
15	0x3d990734	0.07472077
16	0xbc6774b0	-0.014126942
17	0xbde668e2	-0.112504736
18	0x3df0cfa2	0.11758353
19	0x3d60c75c	0.054877624
20	0x3dc1b79c	0.09458849
21	0x3cc1ced8	0.023658201
22	0x3d1a9cfc	0.03774737
23	0xbc48d5d0	-0.012258008
24	0xbd9a4d7c	-0.0753431
25	0xbd88e01a	-0.06683369
26	0xbd968d12	-0.07351126
27	0x3de4fba2	0.11180808
28	0xbdca5226	-0.0987895
29	0x3d3934c0	0.045216322
30	0xbd0b5d94	-0.03402479
31	0x3d84a804	0.06477359
32	0xbdc591b4	-0.09646931
33	0xbdcb554c	-0.099283785
34	0xbdecac30	-0.1155628
35	0xbd4bef40	-0.049788713
36	0xbd01b984	-0.031671062
37	0x3d7764e0	0.060398936
38	0x3cdf3c80	0.027250528
39	0x3d89a042	0.0672002
40	0xbd0a2b2c	-0.03373258
41	0xbce46010	-0.027877837
42	0xbdb81b88	-0.08989626
43	0x3d9db492	0.07700457
44	0xbdafb9fe	-0.08580397
45	0x3ca7c1f0	0.020478219
46	0x3c62d590	0.013844863
47	0xbdd0b6ba	-0.10191102
48	0xbda14d00	-0.07876015
49	0xbdd94fce	-0.10610925
50	0xbd6d7250	-0.057970345
51	0x3d27b96c	0.040948316
52	0xbdf3e600	-0.119091034
53	0x3dbc490a	0.091936186
54	0x3dc777ea	0.09739669
55	0xbd9f0318	-0.07764262
56	0x3ba3b220	0.0049955994
57	0xbd8051b2	-0.06265582
58	0xbc4dfea0	-0.012572914
59	0x3db7e65e	0.08979486
60	0xbce37518	-0.027765796
61	0xbc069630	-0.008214518
62	0xbdf95ce4	-0.121759206
63	0xbdf8cdc2	-0.1214862

pred_head.weight f4 [1, 64]
0	0x3bbb2624	0.005711334
1	0xbb4e0368	-0.0031435136
2	0xbc2a7bca	-0.01040549
3	0x3bf51f78	0.007480558
4	0x3bc68830	0.0060587153
5	0xbd3af135	-0.04564019
6	0x3b668270	0.0035172962
7	0x3d2cdb8e	0.04220157
8	0xbcbc8280	-0.023011446
9	0x3b31b41b	0.0027115408
10	0x3c4081b2	0.011749672
11	0xbc58f09d	-0.01324096
12	0x3c434c37	0.0119200265
13	0xbcfbede0	-0.030753076
14	0xbb4db39f	-0.003138758
15	0x3cecf767	0.028926564
16	0x3c952e4a	0.018210549
17	0x3d5b751d	0.053578485
18	0x3d080c5e	0.03321492
19	0x3c05f59b	0.008176233
20	0xbbc80b13	-0.006104836
21	0xbc3d7211	-0.01156284
22	0xbc68631f	-0.014183789
23	0xbcf4ecd5	-0.029898087
24	0xbcba3b29	-0.022733288
25	0xbcc5a480	-0.024126291
26	0x3be4517a	0.0069677206
27	0x3ca70244	0.020386823
28	0x3b7f88cc	0.003899145
29	0xbc188575	-0.009309162
30	0x3af3f06a	0.0018611078
31	0x3b077115	0.0020666767
32	0xbca8daf3	-0.020612216
33	0xbc782d90	-0.015147582
34	0xbcf7a90e	-0.030231979
35	0x3b279216	0.0025569252
36	0xbcbd5899	-0.023113536
37	0x3c8d50aa	0.017250378
38	0xbc068bfa	-0.008212084
39	0xbd2a2765	-0.041541476
40	0x3c0df0e0	0.008663386
41	0x3c0ace97	0.008472106
42	0xbca51236	-0.020150285
43	0x3c0ec510	0.008713976
44	0xbc2237dd	-0.009901014
45	0x3c2bfe6b	0.01049767
46	0xbc3d0604	-0.011537079
47	0xbb67f9f3	-0.0035396784
48	0xbb3a89af	-0.0028463413
49	0xbc009236	-0.007847359
50	0xbb280ca0	-0.002564229
51	0xbc5a9ebd	-0.01334351
52	0xbcdc7d3c	-0.026915185
53	0x3c62e305	0.013848071
54	0xbd9b653a	-0.07587667
55	0xbcb042a5	-0.021516154
56	0x3b7f02b2	0.0038911519
57	0xbb213d2c	-0.0024603112
58	0x3c2227bb	0.009897168
59	0x3c7378fa	0.014860386
60	0x3bad574e	0.0052899485
61	0xbd630426	-0.055423878
62	0xbb815dfa	-0.0039479705
63	0xbadbc1fa	-0.0016766184

adv_head.0.weight f4 [32, 64]
0	0xbd4e0489	-0.050297294
1	0xbd9cb203	-0.076511405
2	0xbd069734	-0.032859042
3	0xbb680e60	-0.0035408959
4	0x3d95db96	0.07317273
5	0xbb8777a9	-0.0041341376
6	0x3d650646	0.055914186
7	0xbcb2a509	-0.02180721
8	0xbca22bfb	-0.019796362
9	0xbd60af3c	-0.054854617
10	0x3d856a0a	0.06514366
11	0xbe1af882	-0.1513386
12	0x3e23a6b4	0.15981561
13	0xbe1cfea0	-0.15331507
14	0xbd2f9910	-0.04287058
15	0x3dc1eb01	0.094686516
16	0x3dbb7927	0.09153967
17	0xbd62c921	-0.055367593
18	0x3e02e1eb	0.12781493
19	0x3ca0ee21	0.019644799
20	0xbd8e300c	-0.06942758
21	0x3e1f300a	0.15545669
22	0xbd42ab64	-0.047526732
23	0x3e3a20ef	0.18176626
24	0x3c143b9a	0.009047413
25	0xbdfeabe1	-0.12435127
26	0xbcb1f6b0	-0.021724075
27	0x3de470d2	0.11154331
28	0x3dafa238	0.08575863
29	0xbd3f0cdd	-0.046643127
30	0xbe233867	-0.15939485
31	0x3d0da53c	0.034581408
32	0x3cb84f61	0.022498788
33	0xbdf59e11	-0.119930394
34	0xbd1b5a0f	-0.037927683
35	0xbd3b0974	-0.045663312
36	0xbd1a382c	-0.037651226
37	0xbd840425	-0.06446103
38	0xbcce57d1	-0.025188359
39	0xbd81489c	-0.06312677
40	0x3db8ac3d	0.09017227
41	0x3b8c4036	0.0042801155
42	0x3d855297	0.065098934
43	0x3e16958d	0.14705487
44	0xbce1a4c2	-0.027544383
45	0x3d96d27c	0.073643655
46	0x3c12a416	0.008950254
47	0xbda60b56	-0.08107631
48	0xbe535d82	-0.20641139
49	0xbccd611c	-0.02507072
50	0xbad53329	-0.0016265857
51	0xba416838	-0.00073778955
52	0xbc8b2f3c	-0.016990297
53	0xbd72dafc	-0.05929087
54	0x3c3d44f0	0.0115520805
55	0x3e03cf15	0.12871964
56	0x3e0d5087	0.1380025
57	0x3d2b1d3e	0.041775934
58	0x3bcfbef4	0.006339902
59	0x3e023b66	0.12717971
60	0x3d3c8b1c	0.046031103
61	0xbe8219a9	-0.25410202
62	0xbdc73b69	-0.097281285
63	0x3d2622f3	0.040560674
64	0x3cb252c3	0.02176798
65	0x3d33f3b1	0.043933574
66	0x3e2ce789	0.16885199
67	0xbdd9360b	-0.10606011
68	0x3bcfbf83	0.0063399686
69	0x3db85220	0.09000039
70	0xbdde7972	-0.108630076
71	0x3e126a04	0.14298254
72	0x3ca9b3d4	0.020715632
73	0x3d946925	0.07246617
74	0xbda227b5	-0.0791773
75	0x3db59657	0.08866566
76	0x3ddf2422	0.10895564
77	0xbddb0240	-0.106937885
78	0xbb95944f	-0.004564799
79	0xbe2dfd5f	-0.16991185
80	0xbdcd6239	-0.100285
81	0xbcaf2bd6	-0.021383207
82	0xbd4a63e0	-0.049411654
83	0xbda290b9	-0.0793776
84	0x3cb98d2f	0.02265033
85	0x3df3d12e	0.11905132
86	0xbd8db1b6	-0.06918661
87	0x3d7df430	0.062000453
88	0x3d196a3e	0.037454836
89	0x3e76899e	0.24075934
90	0xbd6fb8be	-0.058525793
91	0xbd6712ab	-0.056414288
92	0x3b233b3c	0.0024907133
93	0xbdf4abbd	-0.11946819
94	0x3ca28c0b	0.019842168
95	0xbd0ab97e	-0.033868305
96	0x3c324cfc	0.010882612
97	0x3d922eaf	0.071378104
98	0x3d7fc694	0.06244524
99	0xbd7fa409	-0.062412295
100	0x3c99bbf2	0.018766377
101	0xbb5c447b	-0.0033610153
102	0xbda319d9	-0.079639144
103	0xbd34a3d2	-0.044101544
104	0xbe01585e	-0.12631366
105	0xbda0d2ab	-0.07852682
106	0xbc5751ca	-0.013142059
107	0xbc4ce227	-0.012505091
108	0x3d8f641b	0.070015155
109	0xbdf8ffc1	-0.12158156
110	0x3c703f97	0.0146635985
111	0x3e0a3cae	0.1349971
112	0x3e1ef01f	0.15521286
113	0xbd076f6a	-0.033065237
114	0xbb34289a	-0.002749002
115	0x3d5a88b9	0.053353045
116	0x3e2df5fe	0.1698837
117	0x3dc2223a	0.094791844
118	0x3e381107	0.17975245
119	0xbd7b5b49	-0.061366353
120	0x3d01c49c	0.031681642
121	0xbd9766fd	-0.0739269
122	0x3c68c300	0.014206648
123	0xbe3b5a69	-0.18296207
124	0x3d0232df	0.031786796
125	0x3e181450	0.14851499
126	0xbdb50dbd	-0.08840511
127	0x3d0cbfb6	0.034362517
128	0xbdb0835e	-0.08618806
129	0xbd66ec18	-0.0563775
130	0xbde39f17	-0.11114328
131	0xbdc1a14f	-0.09454595
132	0xbd9e9561	-0.077433355
133	0xbd09af90	-0.033614695
134	0x3d23dfda	0.040008403
135	0xbd478a70	-0.04871601
136	0xbdfdaa8d	-0.123860456
137	0xbe19a045	-0.15002544
138	0xbcc2fc6d	-0.023802007
139	0xbdbae4c8	-0.09125668
140	0xbd038e65	-0.03211822
141	0xbe08f1c8	-0.13373482
142	0xbdb08462	-0.08619
143	0x3d9aed1b	0.075647555
144	0x3d382530	0.04495734
145	0x3c0993d8	0.008397065
146	0x3d9c0b20	0.076193094
147	0x3e2818ea	0.16415754
148	0x3c7cb7ac	0.01542465
149	0x3cc81e37	0.02442847
150	0x3c83a8f6	0.016071778
151	0x3d1e07e3	0.03858174
152	0xbcf72668	-0.03016968
153	0xbdc964f6	-0.0983371
154	0x3dc6ab2c	0.09700617
155	0xbe060058	-0.13086069
156	0x3c94f45d	0.018182928
157	0x3d203b72	0.03911919
158	0xbdc94691	-0.098279126
159	0x3d3ca660	0.046057105
160	0x3db4b4fc	0.088235825
161	0x3d59baf2	0.0531568
162	0x3ab2d2ac	0.0013643107
163	0xbd808bfc	-0.062767
164	0xbbe4f687	-0.006987396
165	0xbd86bbc0	-0.06578779
166	0xbe0ff518	-0.1405834
167	0x3e1c3007	0.15252696
168	0x3db7604e	0.089539155
169	0xbc15214a	-0.009102175
170	0x3deee9b2	0.116656676
171	0xbcf55208	-0.029946342
172	0x3e1ce409	0.15321364
173	0xbda2a1f9	-0.0794105
174	0xbdfa4bd4	-0.12221494
175	0xbd496dbb	-0.049176913
176	0xbdc95fdd	-0.098327376
177	0xbd8a9fb8	-0.06768745
178	0xbdadc6ea	-0.084852055
179	0x3e59c6bb	0.21267216
180	0x3de410aa	0.11135991
181	0xbd11b0c4	-0.035568967
182	0xbe07b9c2	-0.13254455
183	0x3d0affba	0.033935286
184	0x3df0fa96	0.117665455
185	0x3cab0c8f	0.020880012
186	0xbe0036e6	-0.12520942
187	0xbdd34c37	-0.10317271
188	0x3db9bb56	0.090689346
189	0xbdbadd76	-0.091242716
190	0x3d1578f6	0.03649231
191	0xbda97af8	-0.082754076
192	0xbe39b3eb	-0.1813504
193	0x3dd296a2	0.10282637
194	0xbd71c02e	-0.059021167
195	0xbd23d8fd	-0.040001858
196	0xbcaecc35	-0.021337608
197	0xbe0af86b	-0.13571326
198	0x3d45498d	0.048165847
199	0xbd6b1b48	-0.057399064
200	0x3e051baa	0.12998834
201	0x3d275163	0.0408491
202	0xbe447190	-0.19183946
203	0x3e0d3849	0.13791002
204	0xbca62f2c	-0.020286165
205	0xbe3c6ed8	-0.18401659
206	0x3e0d0187	0.13770114
207	0x3e27c632	0.163842
208	0x3e29ed8d	0.16594525
209	0xbe49f625	-0.19722803
210	0x3ce85784	0.028362043
211	0xbd47ea46	-0.048807405
212	0xbe5efec2	-0.2177687
213	0x3ce2c999	0.02768402
214	0xbddb8567	-0.10718804
215	0xbdbf7ad4	-0.093495995
216	0xbd9bb99c	-0.076037616
217	0xbd7daf45	-0.06193473
218	0x3db1141a	0.08646412
219	0xbd2a1a2d	-0.04152887
220	0xbe234b59	-0.15946712
221	0x3d9e0878	0.07716459
222	0x3e35df7e	0.17761037
223	0x3d095ea8	0.033537537
224	0xbc371c27	-0.011176146
225	0x3dda7dba	0.10668512
226	0xbd5b5f03	-0.053557407
227	0xbe0f072c	-0.1396758
228	0xbdbbd2b3	-0.09171047
229	0x3ca3ec67	0.020010186
230	0x3d9a20f2	0.07525815
231	0x3d0db73e	0.03459858
232	0x3d2d99e6	0.042383097
233	0xbd89c5b9	-0.06727166
234	0xbdd13395	-0.102149166
235	0xbd6313fe	-0.055438988
236	0xbdb09675	-0.086224474
237	0x3d804846	0.06263785
238	0xbcaa17ee	-0.020763364
239	0xbe2d3ed6	-0.16918501
240	0xbd28f8c7	-0.041252878
241	0xbb14d98c	-0.0022712676
242	0x3e076a81	0.13224222
243	0x3d8ea3ca	0.06964834
244	0xbe207f00	-0.15673447
245	0xbe333fa7	-0.1750475
246	0x3c4feb79	0.012690418
247	0x3e12a560	0.14320898
248	0x3cee99b4	0.029126026
249	0xbd0903d2	-0.03345091
250	0x3d58d455	0.05293687
251	0xbd2da293	-0.04239137
252	0xbc5bc559	-0.013413751
253	0xbc62f720	-0.0138528645
254	0x3cf8ed94	0.030386724
255	0x3db52141	0.08844233

adv_head.0.bias f4 [32]
0	0x3eb7a2ee	0.35866493
1	0x3de2337c	0.11044976
2	0x3e9982fb	0.29982743
3	0x3e5298e7	0.2056614
4	0x3d84ce47	0.06484657
5	0xbd7883cf	-0.060672577
6	0xbe3e5ae7	-0.18589364
7	0x3e4f5e21	0.20250751
8	0x3eb84550	0.3599038
9	0xbd39232e	-0.045199566
10	0x3d66d9c1	0.05636001
11	0x3e4319d7	0.19052826
12	0xbe682fda	-0.22674504
13	0x3d6695f5	0.056295354
14	0x3d91c7d9	0.07118196
15	0x3e71c893	0.23611669
16	0x3dbe54f4	0.09293547
17	0x3e105537	0.14095007
18	0x3e4fd923	0.20297675
19	0x3df35275	0.11880962
20	0x3e718d59	0.23589076
21	0x3e0a8a7e	0.13529393
22	0x3df62c8f	0.120202176
23	0x3e821319	0.25405195
24	0x3e433e04	0.19066626
25	0xbc9348c9	-0.017979043
26	0x3e259d0f	0.16173194
27	0x3d4edc2b	0.050502937
28	0x3e78229d	0.24231954
29	0x3e420504	0.18947226
30	0xbdcb5e98	-0.09930152
31	0xbe219b79	-0.15781964

adv_head.2.weight f4 [26, 32]
0	0x3d12ac0e	0.035808615
1	0xbd4837ee	-0.048881464
2	0x3d6ddc0c	0.05807118
3	0x3dc50b34	0.096212775
4	0x3e3f4986	0.1868039
5	0xbde34afc	-0.110982865
6	0xbe044200	-0.12915802
7	0x3daa3511	0.08310903
8	0x3dbcd575	0.09220401
9	0x3d8c8eaa	0.068631485
10	0x3c9540ad	0.018219316
11	0xbbf7ee4a	-0.007566248
12	0x3e3dc11b	0.18530695
13	0x3d18825c	0.037233695
14	0x3dda6833	0.10664406
15	0xbe77cab9	-0.24198426
16	0xbca36065	-0.019943425
17	0x3e51c2fc	0.20484537
18	0x3de8e926	0.113725945
19	0xbd72e427	-0.059299614
20	0xba91effa	-0.0011134141
21	0x3df40265	0.11914519
22	0x3d446ddf	0.047956344
23	0x3e0d1520	0.1377759
24	0xbde285b8	-0.11060661
25	0xbd9562dc	-0.072942466
26	0x3c402022	0.011726411
27	0x3c397678	0.011319749
28	0x3e2c0c95	0.16801675
29	0xbe0e3eda	-0.13891163
30	0xbd91f790	-0.07127297
31	0xbda7e3c1	-0.081977375
32	0xbe0ed848	-0.13949692
33	0xbd95bebc	-0.0731177
34	0x3d0b498f	0.034005698
35	0x3d907ed8	0.070554435
36	0x3c8cf1f2	0.017205212
37	0xbdae4e59	-0.085110374
38	0xbe577a96	-0.21042857
39	0xbdc55228	-0.09634811
40	0xbdc526c2	-0.09626533
41	0xbd52bbe7	-0.05144873
42	0xbdb7a231	-0.089664824
43	0xbe5c7444	-0.21528727
44	0xbe6393c7	-0.22224341
45	0x3dfff80e	0.124984846
46	0x3d0041d4	0.03131278
47	0xbe22420a	-0.15845504
48	0x3d9d10f2	0.07669248
49	0xbdebe528	-0.115183175
50	0xbcad4ae5	-0.021153877
51	0xbdfafb2a	-0.12254937
52	0xbe3f21b3	-0.18665199
53	0x3c816171	0.015793534
54	0xbdbf4892	-0.093400136
55	0xbd016870	-0.03159374
56	0xbc37ffbb	-0.0112304045
57	0xbe1c070c	-0.15237063
58	0xbdf186a4	-0.11793259
59	0xbd790fbd	-0.060806025
60	0x3dc64786	0.09681611
61	0xbdfbb5e8	-0.12290555
62	0x3ad95ae5	0.0016582875
63	0xbe532270	-0.20618606
64	0x3d4629db	0.04837976
65	0xbe10d231	-0.14142682
66	0x3dbc7819	0.09202594
67	0x3db50272	0.08838357
68	0x3e063545	0.13106258
69	0xbe30fa9f	-0.17283104
70	0x3d3207d6	0.043464504
71	0x3ca06ac9	0.01958217
72	0xbc3e4c7f	-0.011614918
73	0x3c2efb6e	0.010680063
74	0x3e01ee29	0.12688507
75	0x3defc35a	0.11707182
76	0xbe160430	-0.14650035
77	0x3c9dc46d	0.019258702
78	0x3dd052da	0.10172053
79	0x3caff309	0.021478193
80	0x3e054457	0.13014351
81	0xbd912240	-0.07086611
82	0xbdd28631	-0.10279501
83	0x3e03361b	0.12813608
84	0xbde633e2	-0.112403646
85	0xbcadf08a	-0.021232862
86	0xbc6ce80c	-0.014459621
87	0x3dee5c48	0.11638695
88	0xbeabdb5f	-0.33565804
89	0xbde37fa5	-0.11108331
90	0x3d59666a	0.053076185
91	0x3dfd5a01	0.123706825
92	0xbd110f77	-0.03541514
93	0x3dc7c511	0.09754384
94	0x3e1d5149	0.15363039
95	0xbe3de377	-0.18543802
96	0xbe4c83a9	-0.199721
97	0xbdd8218c	-0.105532736
98	0xbd9b8490	-0.07593644
99	0xbd9e24bb	-0.077218495
100	0xbe68591a	-0.2269024
101	0x3d39021f	0.04516804
102	0xbe6e9fd8	-0.23303163
103	0x3c7892b9	0.0151717
104	0xbd8e93b8	-0.06961769
105	0xbe3ddf26	-0.18542156
106	0x3d8e4011	0.069458134
107	0xbe2e2c35	-0.17009051
108	0x3d079e29	0.033109818
109	0xbe35c183	-0.177496
110	0xbe61a228	-0.22034514
111	0xbe86206d	-0.26196614
112	0xbe3533ae	-0.17695495
113	0xbe0cb8eb	-0.13742416
114	0xbc9d1273	-0.019173836
115	0x3d25a218	0.040437788
116	0x3ca0f1dd	0.01964658
117	0xbdfd389a	-0.123643115
118	0xbd0b51a9	-0.034013424
119	0x3d5f5923	0.054528367
120	0x3d4ea089	0.050446067
121	0x3e087e87	0.13329516
122	0xbde8a7ba	-0.11360116
123	0xbde1b59b	-0.110209666
124	0x3d07d475	0.0331616
125	0xbcc6a0a6	-0.024246525
126	0xbdf290e9	-0.11844046
127	0xbd9a274d	-0.07527027
128	0xbe7307ff	-0.23733519
129	0xbdc4650f	-0.09589588
130	0xbdcf3f70	-0.101195216
131	0x3cf10b58	0.029424354
132	0x3d362dcd	0.044477273
133	0xbda64652	-0.08118881
134	0xbd102f91	-0.035201613
135	0x3da379f1	0.07982243
136	0xbd5beeac	-0.053694412
137	0x3c43a788	0.011941798
138	0xb9e2f3fb	-0.0004328786
139	0x3d12fdb8	0.035886496
140	0xbda7366a	-0.081646755
141	0x3e60a01b	0.21936075
142	0xbc02e7c1	-0.007989825
143	0xbdc8796c	-0.097887844
144	0xbce2accc	-0.027670287
145	0x3e175acf	0.14780734
146	0xbd637fa2	-0.055541642
147	0x3ca2ed6a	0.019888598
148	0xbe2a668e	-0.16640684
149	0xbe4e32c1	-0.20136549
150	0xbd19d803	-0.03755952
151	0x3ce3f837	0.027828319
152	0xbd90ef49	-0.0707689
153	0xbe57a4c4	-0.21058947
154	0xbd92a2ee	-0.071599826
155	0x3e475eb9	0.19469728
156	0xbd178430	-0.0369913
157	0xbe7affc1	-0.24511625
158	0x3daa7e81	0.0832491
159	0xbe2d84d6	-0.16945204
160	0xbd2cffb6	-0.042236052
161	0xbdaabbbc	-0.08336589
162	0xba5ce006	-0.0008425716
163	0xba006ffd	-0.00048995
164	0xbd28a726	-0.04117503
165	0x3c92d543	0.017923957
166	0xbe26a55e	-0.1627402
167	0x3cb7807c	0.022400133
168	0xbe87fad5	-0.26558557
169	0xbe72f02a	-0.23724428
170	0xbc127439	-0.008938842
171	0xbdf30177	-0.11865514
172	0xba382552	-0.0007024604
173	0x3de4abaf	0.111655585
174	0x3c859d09	0.016310232
175	0xbe0a1984	-0.13486296
176	0x3dbfcd3d	0.09365318
177	0xbe1a89f2	-0.15091684
178	0xbcce483d	-0.02518093
179	0x3cf958ae	0.030437794
180	0xbe332463	-0.17494349
181	0xbd5cd273	-0.053911638
182	0xbe41235f	-0.18861149
183	0x3dd02a1d	0.101642825
184	0xbd81987a	-0.06327911
185	0xbe024697	-0.1272224
186	0xbc93635f	-0.01799172
187	0x3d475e46	0.04867389
188	0x3e1d380e	0.15353414
189	0xbdc90eaa	-0.0981725
190	0xbe4d025a	-0.20020428
191	0xbd4faea1	-0.05070365
192	0x3dc21b66	0.09477882
193	0x3d7369c5	0.05942704
194	0x3e64f628	0.22359526
195	0xbcccad86	-0.024985086
196	0x3e103a78	0.14084804
197	0x3d1b0b51	0.03785259
198	0xbdf51170	-0.119662166
199	0x3de5711a	0.11203213
200	0xbd483407	-0.048877742
201	0x3c241e39	0.010016971
202	0x3e57809a	0.21045151
203	0xbda8e7c2	-0.08247329
204	0x3e44f8d5	0.19235547
205	0x3e0a4a60	0.13504934
206	0x3dee5917	0.11638086
207	0x3bcb35d4	0.006201485
208	0x3c514161	0.012771935
209	0x3e338fb2	0.17535284
210	0x3e009ea3	0.12560515
211	0x3b93b01d	0.0045070783
212	0x3df16698	0.11787146
213	0x3e332a3c	0.1749658
214	0xbd610c5c	-0.054943427
215	0x3dba9cc8	0.09111935
216	0x3e3f296a	0.18668142
217	0xbdc16db3	-0.094447516
218	0x3e0563f1	0.13026406
219	0x3d78751c	0.06065856
220	0x3a9cbaaf	0.0011957492
221	0xbdf5c223	-0.11999919
222	0xbdaf4a73	-0.08559122
223	0x3cad15e0	0.021128595
224	0xbe230691	-0.15920474
225	0x3d669d86	0.05630257
226	0x3e1f2082	0.15539744
227	0xbc1cbc64	-0.0095664
228	0x3d94769c	0.072491854
229	0xbe10bf74	-0.14135534
230	0xbe1a3253	-0.1505826
231	0xba6fd0fb	-0.0009148267
232	0x3a90e9f7	0.0011056055
233	0xbe1543c3	-0.1457663
234	0x3e2df828	0.16989195
235	0xbc39046e	-0.01129256
236	0x3d934f76	0.0719289
237	0x3d7b8796	0.0614086
238	0x3e341854	0.17587405
239	0x3c2e0798	0.010621928
240	0x3e2a9b32	0.16660765
241	0x3d90a1c6	0.07062106
242	0xbe1e88dd	-0.15481897
243	0x3d2eefba	0.04270909
244	0xbbb2d99d	-0.0054580704
245	0xbd8e6ad9	-0.06953973
246	0x3b91c180	0.004448116
247	0x3d99eb37	0.07515567
248	0xbe79ba4b	-0.24387471
249	0x3b9b59e2	0.0047409395
250	0xbc9e0012	-0.019287143
251	0x3e32e72e	0.17471
252	0x3cb09fa9	0.021560507
253	0xbcff7536	-0.03118382
254	0x3d458cf5	0.04823013
255	0xbe2471c7	-0.16059028

adv_head.2.bias f4 [26]
0	0xbe227bcc	-0.15867537
1	0xbe30b4ba	-0.17256442
2	0xbe8c7536	-0.27433175
3	0xbd8ccfe0	-0.068755865
4	0xbe5a35ba	-0.21309558
5	0xbecccff7	-0.40002415
6	0x3e204f5d	0.15655275
7	0x3d76cd56	0.060254417
8	0x3d9921a6	0.07477121
9	0xbeaccf74	-0.33752024
10	0x3a3eadd6	0.00072738284
11	0xbc0ba97e	-0.008524297
12	0xbdf0b4fa	-0.117532685
13	0xbe37fbda	-0.17967167
14	0xbe351a32	-0.17685774
15	0x3d8a6d60	0.06759143
16	0xbe355883	-0.17709546
17	0xbdd61f20	-0.104551554
18	0xbdfd26ee	-0.12360941
19	0xbe8fab30	-0.28060293
20	0xbe6195fa	-0.22029868
21	0xbe3d5f79	-0.18493451
22	0xbdeac5ae	-0.11463486
23	0xbcc3c31e	-0.02389675
24	0xbe83a234	-0.2570969
25	0xbe51a9c6	-0.2047492
